…
  0% 0.00/40.8M [00:00<?, ?B/s]  8% 3.12M/40.8M [00:00<00:01, 31.2MB/s] 15% 6.11M/40.8M [00:00<00:01, 23.2MB/s] 21% 8.43M/40.8M [00:00<00:01, 23.5MB/s] 29% 12.0M/40.8M [00:00<00:01, 22.2MB/s] 38% 15.5M/40.8M [00:00<00:01, 26.3MB/s] 45% 18.2M/40.8M [00:00<00:01, 22.3MB/s] 50% 20.5M/40.8M [00:00<00:00, 22.6MB/s] 59% 24.0M/40.8M [00:01<00:00, 21.9MB/s] 68% 27.8M/40.8M [00:01<00:00, 26.3MB/s] 75% 30.5M/40.8M [00:01<00:00, 22.3MB/s] 81% 33.0M/40.8M [00:01<00:00, 23.1MB/s] 88% 36.0M/40.8M [00:01<00:00, 21.5MB/s] 94% 38.5M/40.8M [00:01<00:00, 22.3MB/s]100% 40.8M/40.8M [00:01<00:00, 23.4MB/s]

Overriding model.yaml nc=80 with nc=18

                 from  n    params  module                                  arguments                     
  0                -1  1      5280  models.common.Conv                      [3, 48, 6, 2, 2]              
  1                -1  1     41664  models.common.Conv                      [48, 96, 3, 2]                
  2                -1  2     65280  models.common.C3                        [96, 96, 2]                   
  3                -1  1    166272  models.common.Conv                      [96, 192, 3, 2]               
  4                -1  4    444672  models.common.C3                        [192, 192, 4]                 
  5                -1  1    664320  models.common.Conv                      [192, 384, 3, 2]              
  6                -1  6   2512896  models.common.C3                        [384, 384, 6]                 
  7                -1  1   2655744  models.common.Conv                      [384, 768, 3, 2]              
  8                -1  2   4134912  models.common.C3                        [768, 768, 2]                 
  9                -1  1   1476864  models.common.SPPF                      [768, 768, 5]                 
 10                -1  1    295680  models.common.Conv                      [768, 384, 1, 1]              
 11                -1  1         0  torch.nn.modules.upsampling.Upsample    [None, 2, 'nearest']          
 12           [-1, 6]  1         0  models.common.Concat                    [1]                           
 13                -1  2   1182720  models.common.C3                        [768, 384, 2, False]          
 14                -1  1     74112  models.common.Conv                      [384, 192, 1, 1]              
 15                -1  1         0  torch.nn.modules.upsampling.Upsample    [None, 2, 'nearest']          
 16           [-1, 4]  1         0  models.common.Concat                    [1]                           
 17                -1  2    296448  models.common.C3                        [384, 192, 2, False]          
 18                -1  1    332160  models.common.Conv                      [192, 192, 3, 2]              
 19          [-1, 14]  1         0  models.common.Concat                    [1]                           
 20                -1  2   1035264  models.common.C3                        [384, 384, 2, False]          
 21                -1  1   1327872  models.common.Conv                      [384, 384, 3, 2]              
 22          [-1, 10]  1         0  models.common.Concat                    [1]                           
 23                -1  2   4134912  models.common.C3                        [768, 768, 2, False]          
 24      [17, 20, 23]  1     92943  models.yolo.Detect                      [18, [[10, 13, 16, 30, 33, 23], [30, 61, 62, 45, 59, 119], [116, 90, 156, 198, 373, 326]], [192, 384, 768]]
YOLOv5m summary: 291 layers, 20940015 parameters, 20940015 gradients, 48.4 GFLOPs

Transferred 474/481 items from yolov5m.pt
[34m[1mAMP: [0mchecks passed ✅
[34m[1moptimizer:[0m SGD(lr=0.01) with parameter groups 79 weight(decay=0.0), 82 weight(decay=0.0005), 82 bias
…
